depth_offset.pth (torch, 35448 bytes, 3 tensors)

layer1.weight f4 [128, 63]
000000 6e 02 57 bd 18 d1 ad bd 80 ed 53 bb 4f 97 d9 bd
       -0.05249255 -0.08487147 -0.0032337606 -0.10624563
000010 fc 60 e0 3d d2 42 d4 3d d4 52 c4 bd 31 ea 88 bd
       0.10955998 0.103643075 -0.09586111 -0.066852935
000020 8a c7 8c 3c dd 5c bf bd bc a3 12 3c 3a a4 39 3e
       0.017184991 -0.09343884 0.00895017 0.18129054
000030 4f 45 88 bd f3 eb 14 be 23 4a 12 bd 24 17 85 3b
       -0.066538446 -0.14543132 -0.035715234 0.0040615965
000040 db 5a a0 bd f6 0f 06 3e 6d 07 6b 3b 22 71 9c bd
       -0.07829829 0.13092026 0.003586258 -0.07638766
000050 86 46 49 3e 9b fd a6 bd 0f a1 89 bd 72 0d 05 3b
       0.19655809 -0.0815384 -0.067201726 0.0020302203
000060 b5 68 b0 3b 7d ee d6 3c 7c f6 b1 bc d9 f5 c4 3c
       0.005383576 0.026236767 -0.021723978 0.02404301
000070 da bc b8 bc 20 1a 0b 3d 95 43 22 bd c6 5c 60 3c
       -0.022550989 0.03396046 -0.039615232 0.013693994
000080 8d b3 41 3e 0d 83 11 bd 45 65 91 bd 9c eb a8 3d
       0.1891615 -0.03552537 -0.07099394 0.08248064
000090 85 b4 ad bb b0 7c 14 be 9b ef 3e 3e 1d 37 41 3b
       -0.0053010606 -0.1450069 0.1864609 0.0029482313
0000a0 d1 14 1a bd 38 02 26 3e 5f 48 b3 3c f9 da 55 3d
       -0.03761751 0.16211784 0.021885095 0.05221078
0000b0 48 57 b0 3d 6a d7 cc bd 14 24 ed bb 27 fa 2d 3e
       0.086103976 -0.100020245 -0.007236967 0.16989957
0000c0 09 39 44 be ee 90 02 be 59 30 20 3d 49 8e 05 bd
       -0.19162382 -0.12750599 0.039108608 -0.032606397
0000d0 f6 ef b9 3d 54 aa 05 3c e0 64 e1 bd 5e 83 0e be
       0.09078972 0.008158285 -0.110055685 -0.139173
0000e0 52 1c ff bc 68 ea 80 bd 9c 06 10 be 81 b5 42 3e
       -0.031141434 -0.062947094 -0.14065021 0.19014551
0000f0 fe 6f 43 be 56 7b 8f bc e3 59 e6 3c 3c 39 c1 3d
       -0.1908569 -0.017514866 0.028119033 0.09434745
000100 30 d1 16 3c 20 8e ad 3d e2 a2 96 3d a1 b5 1e 3c
       0.009205148 0.08474374 0.07355286 0.009686858
000110 6c aa 16 3e b3 4d 5d bd 0f 16 1b 3e 02 8e b3 3c
       0.14713448 -0.054029178 0.15145133 0.0219183
000120 73 ab a2 3d 84 bc a8 bb 58 fa 1e 3e 49 9c 7c bd
       0.079428576 -0.005149426 0.15525186 -0.061672483
000130 7d ad 71 3d 1e aa de bc 2f 10 09 bd 15 a1 2b 3b
       0.059003342 -0.027180728 -0.0334627 0.0026188542
000140 04 2a 61 3c 92 23 82 3d 9a a1 23 bd e3 61 a7 3c
       0.013742927 0.06354441 -0.039949037 0.020432418
000150 5f 7a 95 3c c1 fa c5 3d a9 47 3e 3d 97 a8 d3 bc
       0.018246828 0.09666968 0.04645506 -0.025837226
000160 da 09 a7 bd 26 57 95 bc 59 ba cd 3c cc 26 c0 bd
       -0.08156176 -0.018230032 0.025113272 -0.093824
000170 f9 e7 16 3c f0 84 a0 bc d7 ad b1 bd ab 95 32 bd
       0.00921058 -0.01959464 -0.086757354 -0.043599766
000180 77 8a c6 bd 4b 42 6b 3d 8a 3d 8c bd 48 16 b7 3c
       -0.09694379 0.05743627 -0.06847675 0.022349492
000190 a4 77 49 bd 8a 3f c2 3c 73 7d dd 3d 7f 27 0b bb
       -0.049186364 0.023711938 0.10814943 -0.0021233258
0001a0 a4 23 b2 3b c0 06 f6 bd 5c b3 46 bd e8 e3 12 3c
       0.0054363776 -0.12013006 -0.048510894 0.00896547
0001b0 8a 9c 82 3d 61 7c e6 bd ab 3f f1 3d ec ca 0b be
       0.06377514 -0.11254192 0.11779722 -0.13651627
0001c0 81 18 a7 bd 03 9f c0 3d b9 d9 d9 3d 0a a3 e4 3d
       -0.081589706 0.09405329 0.106372304 0.1116391
0001d0 d1 38 64 bd 02 f6 c3 bd 5c 69 fe bc 52 cc 03 bc
       -0.055718247 -0.09568407 -0.031056099 -0.008044319
0001e0 f1 4c 57 bd 1e cd ff bc 32 3d 18 3e c4 4c ac bd
       -0.05256361 -0.031225737 0.14867094 -0.084130794
0001f0 de a5 1f bd 63 75 88 3d c0 e1 3f 3c e4 1e 82 bc
       -0.038976543 0.06663015 0.011711538 -0.01588387
000200 10 f6 bd 3d a6 2e 6a bd 33 98 0f 3d ff 5d 76 3d
       0.09275448 -0.057173394 0.035057258 0.060148235
000210 04 7f 7c 3c 19 4d 66 3d 26 92 2a 3e 5c 56 12 be
       0.015411142 0.05622587 0.16657314 -0.14290756
000220 ed e7 9f bd 28 47 c4 3d 44 57 a8 bd 38 44 3b bc
       -0.07807908 0.095838845 -0.082197696 -0.011429839
000230 a9 f0 a5 3d 8d d3 b5 3d 20 bf dd 3d c0 cc 90 39
       0.08102543 0.08878241 0.1082747 0.0002761837
000240 89 c6 27 be 63 67 a8 3a ed 3d 8c bd eb f8 11 3c
       -0.16384329 0.0012848194 -0.06847749 0.008909444
000250 64 3c a0 bd 59 e6 12 bd 4e 31 92 bd 47 be 60 bb
       -0.078240186 -0.035864208 -0.071383104 -0.0034293102
000260 1f 83 82 bd 06 99 12 3e 34 52 f8 3d 77 6a 87 bc
       -0.063726656 0.14316186 0.12125054 -0.016530259
000270 73 9a 07 bd 66 17 2c b9 a9 56 94 3d fc 35 a3 bd
       -0.03310628 -0.00016411915 0.072430916 -0.07969281
000280 b2 45 07 3e 95 33 2f bd c1 05 23 be 96 37 0e bd
       0.1321018 -0.0427738 -0.15920164 -0.03472098
000290 8c 9c 11 3e 0d fe 55 3d 9d 51 9e 3c 50 91 9f 3d
       0.14219874 0.052244235 0.019326026 0.07791388
0002a0 ae c6 0f 3d ad 65 2a 3d 43 d8 96 bd da 68 d3 3c
       0.035101585 0.04160087 -0.073654674 0.025806833
0002b0 a6 49 61 3d 33 88 ea 3c 34 cd a1 3c f8 9c 20 bc
       0.055001877 0.028629398 0.019751169 -0.009803049
0002c0 41 1b fc bc 98 69 76 3c ac f8 28 bd 4d 38 0e 3d
       -0.030774714 0.015039824 -0.041252777 0.03472166
0002d0 05 d9 2f be 45 96 ac 3d a2 37 e9 3b 00 e1 ff bd
       -0.1717263 0.08427099 0.0071172277 -0.12494087
0002e0 f3 f9 ad bd ce 17 41 bd be 03 06 bc 09 ee 08 3e
       -0.0849494 -0.047141843 -0.008179603 0.13372053
0002f0 3e 23 24 bd 54 fd 6f 3d 7c 1a d6 3d 48 bc e7 bd
       -0.040072672 0.058591202 0.1045427 -0.11315209
000300 40 e5 61 3d d8 c7 1c 3d d0 e2 a8 3c a6 9d f3 bd
       0.05515027 0.038276523 0.020615965 -0.118953034
000310 98 3e 52 bc e8 31 c8 3c 0e f5 89 bd 78 45 d4 bd
       -0.012832306 0.02443786 -0.067361936 -0.103648126
000320 40 40 97 ba 54 6c a5 bd 90 f6 60 3d 0b 63 9f bd
       -0.0011539534 -0.080773026 0.05492264 -0.07782563
000330 58 92 9b 3c f4 69 d3 bd aa 07 cb bd 64 5e af 3d
       0.01899068 -0.10322943 -0.09913571 0.085629255
000340 0a 86 23 bd e0 d6 ca bb e4 de c0 bc dc 29 a1 3d
       -0.03992275 -0.006190166 -0.023543783 0.07869312
000350 af 00 e0 bd 00 60 6d ba 26 b6 a7 3d ca b6 4a bd
       -0.109376304 -0.00090551376 0.08189039 -0.049490727
000360 84 de c9 3d e4 80 f3 bd b0 21 23 3c 68 2a 73 3d
       0.098568946 -0.11889818 0.009956762 0.059366614
000370 a2 12 bb 3d d2 8e c1 3d 24 ab 8d 3d ce 59 e8 3d
       0.09134413 0.09451069 0.06917408 0.11345254
000380 d0 2a bf bc 5a 20 a7 3d a0 f8 7d 3d 30 48 33 3d
       -0.023335844 0.081604674 0.062004685 0.043770015
000390 e9 24 cb bd f4 29 dc bd 74 64 a4 bc ff dc fa bd
       -0.099191494 -0.107501894 -0.020067431 -0.12249183
0003a0 28 37 c8 bd 08 9a c2 bd 2e 60 c6 bd be af cb bd
       -0.09776145 -0.095020354 -0.096863136 -0.099456295
0003b0 d8 80 8b 3d 9e e9 88 3d 78 6e 60 3d fc a5 90 3d
       0.06811684 0.06685184 0.05479285 0.07062909
0003c0 e0 e3 9e bb 11 00 c2 bd 00 fb 1e 3d ac 77 60 3d
       -0.004848942 -0.09472669 0.03881359 0.054801628
0003d0 9c 7e 07 3d 2c 2b aa 3d f2 49 f8 bd 36 23 97 3d
       0.03307973 0.08309016 -0.12123479 0.07379763
0003e0 be 75 fa 3d 10 32 21 3c b8 9a 89 bd b0 6a b3 bc
       0.12229489 0.009838596 -0.067189634 -0.021901459
0003f0 d0 ca e5 3c c7 bb 85 bd d7 dc 81 bd 8b f6 db 3c
       0.02805081 -0.06529956 -0.0634095 0.02685096

layer1.bias f4 [128]
000000 03 4f 0b 3d 74 1a 95 bd 96 d4 c7 bd ab 0b dc bd
       0.0340109 -0.07280436 -0.097573444 -0.10744413
000010 25 a4 ce bd 86 ed a6 bd 85 33 f6 bd 8e ad 9d 3d
       -0.10089902 -0.08150773 -0.12021545 0.076991186
000020 47 24 0a 3e 21 23 6a 3d 78 9a 04 3e 2c 64 c9 bd
       0.13490401 0.057162408 0.1294955 -0.098335594
000030 90 6b 56 3d ad 51 fb 3d ac c9 d7 3d ed e8 86 3d
       0.052348673 0.12271438 0.10536513 0.06587396
000040 a9 f3 7b bc 24 6e a9 bd 02 fd c7 3d 63 68 62 3d
       -0.015377917 -0.08272961 0.09765054 0.055275332
000050 44 d3 aa 3d 96 53 91 bd 79 52 9b 3b 0e 28 cd bd
       0.08341077 -0.07096021 0.004740056 -0.100174055
000060 fb a9 2f bd 51 e6 bf bc 68 52 e1 3d c6 ba 83 bd
       -0.042886715 -0.023425253 0.11002046 -0.064321086
000070 08 6b 10 3d b6 63 91 3d 2f 69 1c 3d 73 13 9e bd
       0.035258323 0.070990965 0.03818625 -0.077185534
000080 73 67 d6 3d 3f 63 2b bd 7a 77 1c 3c ec ad c5 bc
       0.1046895 -0.041842695 0.00954997 -0.024130784
000090 63 3f 0a 3e 96 c2 e4 bd 7c c5 6c bd 7f 82 c2 3d
       0.13500743 -0.11169927 -0.057805523 0.094975464
0000a0 d2 e0 46 3b fe a4 25 3d 1b 43 93 3c f8 4d d6 bd
       0.0030346406 0.040440552 0.017976334 -0.1046409
0000b0 8c cf e4 bd 67 7b 47 bd e7 af f1 3c f8 28 9c bd
       -0.11172399 -0.04870167 0.029502822 -0.07625002
0000c0 29 17 81 3b 1b 03 ea bd 59 9c f7 3d 6b 8b a9 bc
       0.0039395285 -0.114263736 0.12090368 -0.020696362
0000d0 79 67 d9 3b d4 d1 3c bd 26 54 e5 bd 72 ce c2 3b
       0.0066346494 -0.046098545 -0.11197691 0.0059450204
0000e0 c2 d8 79 bd a7 df fb 3c c1 e4 eb ba c8 d5 8d bb
       -0.060997732 0.030746294 -0.0017997251 -0.004328463
0000f0 54 c8 2a 3e f7 16 7d 3d 9d 85 1d bd 7c 70 f6 bd
       0.16677982 0.06178948 -0.0384575 -0.120331734
000100 4e bd 89 bd fb 25 22 be 11 89 95 bc 9d b6 b1 3d
       -0.0672556 -0.15834801 -0.018253835 0.08677409
000110 4c 54 ec bd d4 37 8b bc b0 8e a1 3b 6f 67 88 3c
       -0.11539516 -0.016994394 0.0049303398 0.016650883
000120 cc 02 5c 3d c1 26 b6 3d 90 ce 55 bb 8f bf 04 3e
       0.053713605 0.088941105 -0.0032624342 0.12963699
000130 e1 28 7e bd 0e 81 d9 bd bb 92 96 bd e6 e5 c7 bc
       -0.062050704 -0.10620318 -0.07352205 -0.024401616
000140 c2 e4 87 bd 13 4d 34 3d b6 0c c3 3d e7 2d 07 3e
       -0.06635429 0.044018816 0.09523909 0.13201104
000150 64 2f 51 bd 23 f4 b8 3d 76 b2 2b bd c7 f8 65 3b
       -0.051070586 0.090309404 -0.04191824 0.003509091
000160 a4 9f 20 3d a2 91 bb bc 36 2a 13 bc fa bb 2c 3e
       0.039214745 -0.022896592 -0.008982232 0.16868582
000170 77 c7 15 be 67 37 2b 3d 17 90 13 3d b4 e7 8c bd
       -0.14626871 0.041800883 0.036026087 -0.06880131
000180 e9 4f b4 bd 89 70 b8 3d 22 9b 08 bd 79 c8 9e bd
       -0.08804304 0.090058394 -0.03335107 -0.07753081
000190 48 2d 81 3d b2 a1 8e bd c1 44 e8 bd 6a 19 0f 3e
       0.06307465 -0.06964435 -0.11341239 0.13974538
0001a0 0a 26 1d bd 1c 72 cc bd b0 7c a6 bc 64 0b b2 bd
       -0.038366355 -0.09982702 -0.020323128 -0.08693579
0001b0 d0 db 0c 3d 86 ce f2 3d e3 23 88 3c bd 8e c1 bd
       0.034389317 0.118557975 0.016618675 -0.09451053
0001c0 46 3a 72 3d 42 0e c5 bd 1a b1 0c 3e d9 0e 1a 3e
       0.059137605 -0.0962186 0.13739434 0.15044726
0001d0 d4 cf 11 3d 51 a2 10 3e 16 b2 32 3d 70 9a d5 bc
       0.03559859 0.14124419 0.043626867 -0.026074618
0001e0 f2 f3 b1 bd 1a f8 90 3d a4 b6 1c bd d1 d4 10 be
       -0.08689107 0.070785716 -0.038260117 -0.14143683
0001f0 4b 9e e7 bd e1 53 16 3d a4 01 28 be cb ef d6 3c
       -0.11309489 0.036701087 -0.16406876 0.02623739

layer3.weight f4 [1, 128]
000000 6e ff 55 3d c5 9b 83 bc 78 1d 07 3b cf 67 af 3d
       0.05224555 -0.016065488 0.002061693 0.08564722
000010 19 af 29 ba cc 2d a5 3c 90 fe e5 3c cb 5b dc bd
       -0.000647293 0.02016344 0.028075486 -0.107596956
000020 1d f5 30 bd d8 85 91 bd fe a3 79 bd 5a e3 ed bc
       -0.04320251 -0.07105607 -0.06094741 -0.029039074
000030 c7 f5 ab 3c e0 0b 74 bd 90 52 52 bd b1 64 c1 bc
       0.02099122 -0.059581637 -0.05134827 -0.023607584
000040 55 60 bf bc fa 5a a6 3c c9 10 1c bd 3f 30 39 3d
       -0.023361364 0.020307053 -0.038101945 0.045212027
000050 e5 87 a2 bd 2f 2e 9c 3d bf f1 90 bd e5 b3 b2 3d
       -0.07936076 0.07625996 -0.070773594 0.087257184
000060 04 1e ee bc 0d fb 22 bc 83 48 79 bd cb 95 28 bd
       -0.029067047 -0.0099475505 -0.06086017 -0.04115848
000070 24 5f 87 bd 87 68 3b bd 11 b6 fb bc e9 18 22 3c
       -0.066099435 -0.045753982 -0.030726464 0.009893634
000080 f8 0b d4 bc 23 f5 59 bd 72 6a 80 bd b3 cb 87 3d
       -0.025884613 -0.053212296 -0.06270303 0.066306494
000090 16 0e e8 bd c8 a6 bf bc 3a 1d b4 bc a1 57 ab bd
       -0.11330812 -0.023394957 -0.021986593 -0.08366323
0000a0 e9 28 9c 3d 2a a1 e8 3c 68 63 a7 3c 7e 6a 56 3d
       0.076249905 0.028397162 0.020433143 0.052347653
0000b0 a8 2c 52 bb 5e a2 04 bd 04 18 c1 bd 72 7f d4 bc
       -0.0032070074 -0.032381408 -0.09428409 -0.025939677
0000c0 7b 9c 5c bd fb 59 ca bc c5 fb aa bd 83 b0 e8 3c
       -0.05386017 -0.02470111 -0.083488025 0.02840448
0000d0 e1 3d 71 3d 8b 8e 1a bd 71 7d 81 3c 2d b1 5a 3d
       0.058896903 -0.037733596 0.015806885 0.053391624
0000e0 9c eb 19 bd 1f e6 8d 3c f3 86 19 bc 0c 2c 04 3d
       -0.03757821 0.017321644 -0.009370553 0.03226857
0000f0 9c 73 5f bd a1 aa 4b bc 8f 81 e7 3b 5e 64 8c 3b
       -0.054553613 -0.012430818 0.007065005 0.0042844256
000100 ef 50 80 bb 57 69 de 3c 60 22 72 3c 97 a0 cd bc
       -0.003915898 0.02714984 0.014778703 -0.02510099
000110 b0 15 70 3a 3b c0 d2 bd b7 95 c0 bc 15 a1 1a 3c
       0.0009158505 -0.10290571 -0.02350889 0.009437819
000120 39 11 ec bc 23 64 8c bd 8c 59 dc 3c cb 84 44 bd
       -0.028816806 -0.06855037 0.026898168 -0.047978204
000130 17 87 8d bc 62 2d 68 3d 8e c6 41 3d e1 71 e6 bb
       -0.01727633 0.056683905 0.047308497 -0.0070326184
000140 1a 95 20 3d 8a 82 de bb db bf 86 bd df af 24 bd
       0.039204694 -0.006790464 -0.06579562 -0.040206786
000150 04 48 94 3c bb 18 8e bd 69 d9 89 3d ca bd 5a 3d
       0.018100746 -0.06938311 0.06730921 0.053403653
000160 8b 8d 26 bd c5 27 c3 bb 37 2c 10 bd ef 61 f0 bd
       -0.04066233 -0.0059556686 -0.035198417 -0.11737429
000170 b9 61 2d bd 68 29 83 bd fc 10 4f bc 36 21 a8 bc
       -0.042329524 -0.06404382 -0.012638327 -0.020523649
000180 1a 54 28 bd 84 70 64 bd 5f 99 82 3d 70 a4 67 3c
       -0.04109583 -0.055771366 0.063769095 0.014138326
000190 07 b9 2a bd e2 e6 74 3c 71 53 d9 3c 1b b6 ac bd
       -0.041680362 0.014947625 0.026529046 -0.08433171
0001a0 51 1c 09 bd 03 85 f9 3a e7 9e 6b 3d 88 61 0d 3c
       -0.03347427 0.0019036833 0.057524588 0.00862921
0001b0 ac cb 35 3c 5b 0e bd bd ce 74 4f 3d e9 be 1f bd
       0.011095922 -0.09231254 0.050648503 -0.039000425
0001c0 9a 2d d9 bc b0 57 d6 bb 46 6e b8 bd 2c 92 f8 bd
       -0.026511002 -0.006541215 -0.09005408 -0.12137255
0001d0 f0 63 66 3d 09 7f b6 bd 28 b9 c9 bd 46 6e a7 bc
       0.05624765 -0.08910949 -0.09849769 -0.020438325
0001e0 26 0c 19 3d cc 26 f2 bd 67 2e 72 bb 77 9a a3 3b
       0.0373651 -0.11823806 -0.0036953927 0.004992779
0001f0 1d 0a 32 bd fe f8 e2 3c c1 25 c6 bc a5 5f b6 3b
       -0.043466676 0.02770662 -0.024187924 0.005565601
