depth_offset.pth (torch, 35448 bytes, 3 tensors)

layer1.weight f4 [128, 63]
-0.1198582 0.094314456 0.06240663 -0.08238813 0.124586284 -0.14871949 -0.044187624 0.023545112
0.03122377 0.019403253 0.16984142 -0.13137497 -0.1732523 0.20423326 -0.023737341 0.02489026
-0.036096994 -0.13730893 0.06434837 0.17832111 -0.04100303 -0.1282595 0.19684277 -0.16312805
-0.015754763 0.17941333 0.038161784 -0.1540695 -0.09780876 0.024381759 -0.0802537 -0.021210348
-0.047557365 -0.20507668 0.00068807905 0.048412647 0.03170542 0.052088026 -0.11939883 -0.21205324
0.06476513 -0.18262234 -0.1770505 0.049712922 -0.12329296 -0.15447816 0.09742385 0.037752893
-0.23927428 0.12838566 -0.06593831 -0.0140971495 0.036819074 -0.05923099 -0.17538556 0.119422644
-0.06877739 -0.042260196 0.07666802 -0.0010487058 -0.019823248 -0.010182768 -0.064917564 -0.113429315
0.08850917 0.04622495 -0.041288793 -0.06440675 0.13621216 -0.15280461 0.007663336 -0.026289107
-0.1029103 -0.15470129 -0.02023586 -0.008433296 0.022827493 0.025477355 -0.04824126 -0.03804536
-0.021763988 -0.049604736 0.012830824 0.01024242 -0.15238558 -0.045617156 0.18128635 0.055664923
-0.037649557 0.1756468 -0.17022529 0.028439276 -0.022679137 -0.034047354 -0.0055561806 0.14515199
-0.0050958195 -0.01617253 -0.05947779 -0.09849534 0.011356158 -0.017708426 0.090761185 -0.056369245
0.103177704 -0.0014483207 0.034872532 0.1563418 -0.05781233 -0.09344432 0.13084474 0.1570769
-0.04348312 -0.028637748 0.09764526 -0.027411755 0.12596782 -0.058829878 -0.10108446 0.06664497
-0.04229981 0.059216984 0.09513841 0.14585392 -0.020840188 -0.01146182 0.11623958 -0.040618084
-0.08518492 -0.122210346 0.098155454 -0.11619578 0.111798495 0.02651687 -0.09070511 0.124055564
0.08246493 -0.072182536 0.10357648 -0.01304242 0.03649716 -0.0654711 0.016551718 -0.0014618859
-0.11448076 0.10504192 0.076915726 -0.0036733523 -0.021784365 0.00014874339 -0.039545417 0.08543247
0.005020544 -0.06970626 0.08771065 -0.058038466 -0.11200528 -0.045323744 0.099421695 0.05341184
0.12236464 0.020960212 -0.037025444 -0.016970344 0.112755194 0.07257111 0.05182022 -0.09120193
-0.05731538 -0.084831975 -0.096178696 0.03846833 -0.11642194 -0.11221712 0.076944456 -0.11355654
-0.06656715 -0.11215517 -0.06248878 0.027355954 -0.06705195 -0.11686477 0.017961755 0.031237245
0.058167487 0.010061085 0.014323562 0.054788798 0.0537529 -0.03135299 0.025394306 0.12252803
-0.15148462 -0.029557502 0.092156336 -0.029616045 -0.054462027 0.009479936 -0.03890518 -0.08687009
0.027118295 -0.00439234 0.040279604 0.099760175 0.0207317 -0.019011848 -0.06677928 0.008724758
0.06186869 0.1516531 -0.13302779 0.0938924 0.044795718 -0.032449957 0.07122047 0.16375498
0.09384521 -0.0730775 0.10479508 -0.02285565 -0.11574539 0.013085003 -0.08845063 -0.034995046
0.17022292 -0.11466722 0.008892148 0.060746882 0.09486425 0.07841932 0.040129725 0.1709071
0.06414813 -0.04567233 -0.02519483 -0.0032819042 -0.01920806 0.12987132 -0.04736165 0.021912187
0.19113821 0.114838384 0.15992346 -0.033926327 -0.1009441 0.07085893 -0.029171843 -0.090358675
-0.058181703 -0.01554996 -0.055946562 0.022729356 0.119032994 -0.0018022284 0.08347151 0.022355545
00000000: 3778 f5bd f027 c13d 189e 7f3d 1cbb a8bd
00000010: 1827 ff3d ec49 18be 15fe 34bd aee1 c03c
00000020: fec8 ff3c 92f3 9e3c e9ea 2d3e 2987 06be
00000030: 0d69 31be 8622 513e d074 c2bc a9e6 cb3c
00000040: 71da 13bd b69a 0cbe 14c9 833d cf99 363e
00000050: cbf2 27bd 7556 03be 2791 493e 0a0b 27be
00000060: 2210 81bc 21b8 373e 884f 1c3d 65c4 1dbe
00000070: f64f c8bd 41bc c73c 0d5c a4bd 53c1 adbc
00000080: 83cb 42bd 9fff 51be 3460 343a 574c 463d
00000090: 8bdd 013d 415a 553d 6087 f4bd 7c24 59be
000000a0: 95a3 843d 5a01 3bbe ba4c 35be c79f 4b3d
000000b0: 0581 fcbd 862f 1ebe 2886 c73d c7a2 1a3d
000000c0: 5104 75be 8877 033e aa0a 87bd bbf7 66bc
000000d0: 99cf 163d 329c 72bd 4698 33be dc93 f43d
000000e0: 29db 8cbd 0719 2dbd 1f04 9d3d ba74 89ba
000000f0: 5d64 a2bc a0d5 26bc 80f3 84bd a14d e8bd
00000100: 4c44 b53d 6056 3d3d 701e 29bd b0e7 83bd
00000110: 337b 0b3e d078 1cbe b91c fb3b 415c d7bc
00000120: a3c2 d2bd 046a 1ebe adc5 a5bc cf2b 0abc
00000130: b900 bb3c e3b5 d03c a198 45bd 74d5 1bbd
00000140: 644a b2bc 562e 4bbd 6038 523c d3cf 273c
00000150: f70a 1cbe 0ed9 3abd 21a3 393e e700 643d
00000160: 6c36 1abd c1dc 333e 8a4f 2ebe 7cf9 e83c
00000170: 99c9 b9bc 3d75 0bbd 9f10 b6bb b9a2 143e
00000180: d5fa a6bb 417c 84bc fc9e 73bd edb7 c9bd
00000190: 2e0f 3a3c 4311 91bc 00e1 b93d 70e3 66bd
000001a0: d54e d33d 94d5 bdba 80d6 0e3d 1118 203e
000001b0: 9fcc 6cbd bc5f bfbd 2afc 053e c4d8 203e
000001c0: 5b1b 32bd b699 eabc 3dfa c73d 9e8e e0bc
000001d0: b5fd 003e 99f7 70bd 5f05 cfbd 287d 883d
000001e0: 9142 2dbd 828d 723d edd7 c23d bb5a 153e
000001f0: 0bb9 aabc 5cca 3bbc 040f ee3d 265f 26bd
00000200: 6e75 aebd 6b49 fabd ba05 c93d 0ef8 edbd
00000210: 9cf6 e43d e839 d93c 9ac3 b9bd d810 fe3d
00000220: 60e3 a83d 70d4 93bd e81f d43d e0af 55bc
00000230: 0c7e 153d b615 86bd 7897 873c c09c bfba
00000240: e474 eabd 3820 d73d fe85 9d3d a0bc 70bb
00000250: 2075 b2bc 00f8 1b39 60fa 21bd 38f7 ae3d
00000260: 6083 a43b 28c2 8ebd a4a1 b33d beb9 6dbd
00000270: 0663 e5bd 64a5 39bd 9a9d cb3d 60c6 5a3d
00000280: 509a fa3d c0b4 ab3c fea7 17bd 6405 8bbc
00000290: 32ec e63d 2aa0 943d 7041 543d 14c8 babd
000002a0: 88c3 6abd 63bc adbd 56f9 c4bd f890 1d3d
000002b0: a06e eebd 17d2 e5bd 0e95 9d3d 5590 e8bd
000002c0: 5c54 88bd 9cb1 e5bd 3cf4 7fbd 9819 e03c
000002d0: 8852 89bd cc56 efbd 8824 933c 40e5 ff3c
000002e0: 0841 6e3d 40d7 243c 60ad 6a3c 386a 603d
000002f0: 002c 5c3d fe6b 00bd b807 d03c faef fa3d
00000300: c91e 1bbe 9322 f2bc 76bc bc3d 599d f2bc
00000310: 9313 5fbd bc51 1b3c 0a5b 1fbd f2e8 b1bd
00000320: 3027 de3c 9eed 8fbb 3afc 243d 104f cc3d
00000330: 87d5 a93c bcbe 9bbc 93c3 88bd 4af2 0e3c
00000340: 066a 7d3d f34a 1b3e 7038 08be a94a c03d
00000350: b77b 373d 3fea 04bd 0adc 913d 63af 273e
00000360: eb31 c03d a8a9 95bd ce9e d63d c63b bbbc
00000370: eb0b edbd 7b62 563c 9b25 b5bd f756 0fbd
00000380: eb4e 2e3e a6d6 eabd 5fb0 113c b9d1 783d
00000390: 3048 c23d 4f9a a03d 115f 243d 4502 2f3e
000003a0: 1860 833d e912 3bbd 6365 cebc 3715 57bb
000003b0: 395a 9dbc fdfc 043e 4afe 41bd 3081 b33c
000003c0: bcb9 433e 6330 eb3d fac2 233e 55f6 0abd
000003d0: c8bb cebd 7d1e 913d caf9 eebc f80d b9bd
000003e0: f04f 6ebd 42c5 7ebc 3928 65bd ea32 ba3c
000003f0: 92c7 f33d c038 ecba 1cf3 aa3d fa22 b73c

layer1.bias f4 [128]
0.13799024 -0.1492713 -0.11441259 -0.055909466 -0.0553278 -0.06718901 -0.14237763 -0.16401926
0.0570227 -0.0974541 -0.10437036 0.051151887 0.09485408 0.04615478 0.04042539 0.02150943
-0.087230444 -0.111170426 0.023339868 -0.124366835 -0.008164806 0.05195178 -0.002796578 0.04298744
0.040978327 0.0861615 -0.14205225 -0.10866202 -0.10447385 -0.0778057 -0.00965137 -0.07385126
-0.12537837 -0.011226548 0.011848385 -0.12234212 0.00039910886 0.15847646 0.0041441536 0.146622
-0.14136408 -0.022038996 -0.06073967 -0.12545538 0.088349536 0.029574297 0.033710018 -0.025958333
-0.010423703 0.0064388607 -0.112481005 0.064218126 -0.0794503 0.04329695 -0.06453604 0.04466298
-0.012665762 -0.040060423 0.042400762 0.0833728 0.047216713 -0.05455982 0.08633507 0.019624742
0.11404686 0.064476036 0.13030052 -0.021851866 -0.12537795 0.08031338 -0.03117983 0.04371589
0.009022001 -0.085056886 -0.1209067 -0.16786633 -0.06344323 0.061208896 -0.048358724 -0.09876877
0.015417517 0.1104976 -0.095139265 -0.11572754 -0.021217447 -0.03238454 -0.032513347 0.06439063
-0.055387497 -0.11769152 -0.11456026 0.11107077 0.05861093 0.12768225 -0.055173896 0.021961639
-0.0032119013 -0.023323664 0.06228085 -0.07779757 0.03528043 0.11219466 -0.14434552 -0.16131406
-0.123349585 -0.027454568 -0.10094729 -0.11753747 0.040436443 0.010493166 0.06077529 0.13184015
0.028833728 0.071599 0.06766724 0.1181039 -0.11739724 -0.07503189 0.13000494 0.10814217
0.09063675 0.090105325 0.09567811 0.053594258 0.024930535 0.03808725 -0.07039593 0.04005502
00000000: 504d 0d3e 93da 18be 2651 eabd 5301 65bd
00000010: 679f 62bd 649a 89bd 71cb 11be aaf4 27be
00000020: a290 693d 0496 c7bd 21c0 d5bd a484 513d
00000030: db42 c23d cb0c 3d3d 1895 253d 8b34 b03c
00000040: e0a5 b2bd 52ad e3bd 4033 bf3c 0ab4 febd
00000050: aec5 05bc 64cb 543d cb46 37bb 9913 303d
00000060: e4d8 273d 7175 b03d 2576 11be 318a debd
00000070: 63f6 d5bd 9858 9fbd c820 1ebc 543f 97bd
00000080: 3063 00be 8eef 37bc bb1f 423c 818e fabd
00000090: 7c3f d139 a747 223e aecb 873b 1424 163e
000000a0: bfc1 10be 208b b4bc 29ca 78bd 6077 00be
000000b0: 9af0 b43d cc45 f23c 8413 0a3d 92a6 d4bc
000000c0: 2ec8 2abc 14fd d23b 715c e6bd cb84 833d
000000d0: d7b6 a2bd 2558 313d 792b 84bd 87f0 363d
000000e0: 0e84 4fbc 6616 24bd 6cac 2d3d 5cbf aa3d
000000f0: 5066 413d 1e7a 5fbd 71d0 b03d 11c4 a03c
00000100: 6691 e93d 030c 843d 806d 053e af02 b3bc
00000110: 1463 00be 577b a43d d86c ffbc 6f0f 333d
00000120: 04d1 133c 4e32 aebd ef9d f7bd 27e5 2bbe
00000130: 86ee 81bd 2eb6 7a3d cc13 46bd 4847 cabd
00000140: c199 7c3c 914c e23d 60d8 c2bd 8f02 edbd
00000150: 36d0 adbc a7a5 04bd b72c 05bd 3cdf 833d
00000160: 00de 62bd 4008 f1bd 929e eabd 1279 e33d
00000170: 0412 703d 23bf 023e 06fe 61bd e5e8 b33c
00000180: c37e 52bb 4511 bfbc 341a 7f3d 5554 9fbd
00000190: 3682 103d 50c6 e53d 50cf 13be 832f 25be
000001a0: b59e fcbd 67e8 e0bc 74bd cebd 7cb7 f0bd
000001b0: afa0 253d 87eb 2b3c 83ef 783d 1b01 073e
000001c0: b634 ec3c 7fa2 923d 1f95 8a3d 75e0 f13d
000001d0: f76d f0bd 52aa 99bd 0420 053e a479 dd3d
000001e0: c39f b93d 2489 b83d e3f2 c33d a785 5b3d
000001f0: 1f3b cc3c 6001 1c3d be2b 90bd bc10 243d

layer3.weight f4 [1, 128]
-0.11587078 0.029562147 0.08488839 -0.0354834 -0.00997186 0.08245131 -0.038127124 -0.029913671
-0.11528891 0.049433567 0.0101825595 -0.09924081 0.116853036 0.019895554 -0.013744175 0.030665958
-0.042092156 -0.03814854 0.04690098 0.004673413 0.019612417 0.11868846 -0.037642688 -0.05251296
0.10376533 -0.11870575 -0.048002582 0.04466077 -0.016198205 -0.0365415 -0.017207753 0.033307567
0.054336257 -0.09297741 0.08058588 -0.007849996 -0.078534 -0.038217228 -0.05104171 -0.12521906
0.026190236 0.0124019 0.025832687 -0.041412693 -0.03655954 0.034214485 -0.02366391 -0.038237553
-0.091916285 -0.14998566 -0.03290496 0.06664185 0.026652863 -0.05064112 0.01832036 0.062458064
-0.031601235 0.017291043 0.19193862 -0.12245614 0.055318777 -0.0019097999 -0.08189129 0.092549585
-0.12828901 -0.030313443 -0.06604572 0.025348846 -0.016319778 -0.12519073 -0.0015227202 -0.122582264
-0.058082726 -0.055622842 0.052128352 -0.04549522 -0.14826201 0.0019794132 0.016780367 0.0024154112
-0.122604065 -0.13505465 0.022375891 -0.07032616 0.006301445 -0.17209713 0.11863964 -0.14346679
-0.07870478 0.08412879 -0.077131316 -0.020590523 -0.104676925 -0.1264484 0.05212998 0.057628565
0.028256668 -0.1446708 0.028248707 -0.012911303 -0.079308115 -0.09042928 -0.04093886 -0.03387133
-0.054854345 -0.009710583 -0.020984732 0.0024437457 -0.025179919 -0.06897281 -0.06391671 -0.09269379
-0.07989764 0.00047123656 0.018851915 -0.04484046 0.02064473 -0.10926988 -0.07681919 -0.10005495
-0.12078335 -0.1166068 -0.105899185 -0.07527858 -0.02540591 -0.049038667 0.00084336585 0.021085931
00000000: a94d edbd 512c f23c f7d9 ad3d 0b57 11bd
00000010: 0361 23bc 3bdc a83d 302b 1cbd 840d f5bc
00000020: 981c ecbd da7a 4a3d c0d4 263c c43e cbbd
00000030: a550 ef3d 00fc a23c 402f 61bc 2d37 fb3c
00000040: d368 2cbd a541 1cbd 3e1b 403d 6e23 993b
00000050: 38aa a03c ef12 f33d 382f 1abd d417 57bd
00000060: eb82 d43d 001c f3bd 5b9e 44bd 36ee 363d
00000070: 19b2 84bc 8aac 15bd 46f7 8cbc 846d 083d
00000080: b28f 5e3d f16a bebd 360a a53d 459d 00bc
00000090: 6fd6 a0bd ab89 1cbd 1d11 51bd 6d39 00be
000000a0: e88c d63c 5731 4b3c 129f d33c 5ba0 29bd
000000b0: 75bf 15bd 7d24 0c3d d1da c1bc fb9e 1cbd
000000c0: 9b3e bcbd d795 19be 5ac7 06bd 867b 883d
000000d0: 1b57 da3c 106d 4fbd 9414 963c 07d4 7f3d
000000e0: 4c70 01bd f2a5 8d3c 8f8b 443e 49ca fabd
000000f0: f195 623d 4052 faba 9fb6 a7bd a38a bd3d
00000100: 325e 03be e653 f8bc fa42 87bd 62a8 cf3c
00000110: 0eb1 85bc 0032 00be 0396 c7ba 690c fbbd
00000120: 27e8 6dbd c7d4 63bd 8a84 553d 3259 3abd
00000130: ffd1 17be 0bb9 013b fb76 893c e04b 1e3b
00000140: d717 fbbd c44b 0abe a54d b73c 2907 90bd
00000150: 5a7c ce3b 3b3a 30be 57f9 f23d f5e8 12be
00000160: f92f a1bd b74b ac3d 06f7 9dbd 75ad a8bc
00000170: db60 d6bd b07b 01be 3f86 553d ee0b 6c3d
00000180: 877a e73c 9524 14be d569 e73c ee89 53bc
00000190: 4b6c a2bd fd32 b9bd 82af 27bd aabc 0abd
000001a0: f3ae 60bd 2319 1fbc 2ce8 abbc 4027 203b
000001b0: 1e46 cebc 9e41 8dbd c4e6 82bd 3ed6 bdbd
000001c0: 60a1 a3bd 4d10 f739 556f 9a3c a1aa 37bd
000001d0: 231f a93c e3c8 dfbd 6153 9dbd 9ce9 ccbd
000001e0: 435d f7bd 8ccf eebd ace1 d8bd a82b 9abd
000001f0: 0e20 d0bc c5dc 48bd 5315 5d3a 67bc ac3c
