hand_depth_model.pt (torch, 77740 bytes, 7 tensors)

layers.0.weight f4 [128, 63]
000000 31 77 89 3d 71 f7 bc bd 1c 51 1d be 4d ae 71 bd
       0.06712187 -0.09226883 -0.15362972 -0.059004117
000010 56 27 5c be 66 bb bc 3c 99 2d 4d be f6 d8 4a be
       -0.2149938 0.023038577 -0.20036925 -0.19809327
000020 ba 50 47 3d ef 4c ff 3b 0a 23 59 bd 0b 95 2a be
       0.04866097 0.0077911536 -0.05301193 -0.16658418
000030 92 c0 6d 3d d0 12 dd bc 82 d9 d6 3d 6c 77 af 3d
       0.058044977 -0.02698651 0.10490705 0.085677
000040 8c 9c 32 3d f3 8a 49 be b2 3d a4 3c 06 15 9e bd
       0.043606326 -0.19681911 0.02004895 -0.07718854
000050 f9 aa 33 3e 5a 63 66 bd ca bd 58 3d fe c6 43 bd
       0.1754569 -0.056247093 0.052915372 -0.047797196
000060 ab 5e 40 be c9 6e 0e 3e ff 97 23 be a1 e9 c4 3d
       -0.18786113 0.13909449 -0.1597595 0.09614874
000070 50 52 86 3d 0e d9 65 3c b5 a7 f1 3c b5 31 1f 3c
       0.065586686 0.014028801 0.029498914 0.009716441
000080 3b a2 00 3e a6 02 72 3d 9c 51 cc bc 5e 2f 17 3d
       0.12561886 0.059084557 -0.024941258 0.036910407
000090 3e 18 20 3e fb 64 2f 3e f5 56 67 be 92 e7 f2 3d
       0.15634248 0.17128365 -0.22591765 0.11860575
0000a0 f6 25 73 3e d8 c0 f2 bc 98 55 82 bd ac a1 b6 3d
       0.2374495 -0.02963297 -0.06363982 0.08917555
0000b0 3f 70 0a 3e 6a 7c 12 3e ad 43 24 3d e6 d9 ee 3d
       0.13519381 0.14305273 0.040103603 0.116626546
0000c0 b1 e1 c6 bd dd 8b 3c 3d 96 af 8c bb 8a ce 1d bd
       -0.09711016 0.04603182 -0.0042933924 -0.03852705
0000d0 45 14 cb 3d e3 e5 19 3d 24 2c 40 bd ca 96 6b 3d
       0.099159755 0.037572753 -0.046917096 0.05751685
0000e0 93 c5 ba 3d b5 05 12 3e fd 8f bd 3d 6d b9 23 3e
       0.091197155 0.1425999 0.09255979 0.15988703
0000f0 be 6e 2a be 2e cd e7 3d 65 f9 84 bb 67 47 39 be
       -0.16643807 0.11318432 -0.0040580505 -0.18093644
000100 33 6f 4a be f9 10 2e be e0 62 06 bc 61 3b 58 3d
       -0.19768982 -0.16998662 -0.008202285 0.052791003
000110 99 c2 5d bd 08 70 88 3e 10 9c 82 bd ee dd 6e 3e
       -0.05414066 0.26647973 -0.06377423 0.23326847
000120 8b 80 59 3e 84 a0 40 bd e2 42 65 3e f8 11 20 3d
       0.21240442 -0.04702808 0.22388795 0.039079636
000130 52 6d c2 3d 29 59 4a 3e a9 e5 90 3d 25 91 cb 3d
       0.094935074 0.19760574 0.07075054 0.099397935
000140 13 15 c4 3c 42 69 d7 3d 4b 4d 4f bd 0f d8 85 bc
       0.02393583 0.10518123 -0.05061082 -0.016338376
000150 56 1f 7d bb 93 ca 3e 3d a4 f7 44 3e 89 7c 38 3e
       -0.0038623414 0.04657991 0.19235092 0.18016256
000160 6e 97 58 bb e2 18 83 3e be ee 1a 3d 3d 62 1a 3e
       -0.0033049244 0.25604922 0.03782534 0.15076537
000170 be 46 f8 3b c1 4b 92 3c 9a e9 2e 3e 55 d5 7c bc
       0.0075767925 0.017858388 0.170813 -0.015431722
000180 9b 7c d2 3c 79 36 d9 3d a8 b2 fd bd eb b4 55 bb
       0.025694182 0.10606093 -0.123875916 -0.0032609056
000190 bd 44 0e 3d 79 44 3f bd fe 1f d2 3d 36 b1 92 bd
       0.034733523 -0.04669616 0.10260008 -0.071627066
0001a0 da 8d 70 bd 07 d2 2b be 6c 97 29 3d 84 d5 5d 3c
       -0.05872903 -0.16779338 0.041404173 0.013539676
0001b0 40 17 26 be 29 43 7e 3d d7 67 30 3e f5 00 07 be
       -0.16219807 0.062075768 0.17227112 -0.13183959
0001c0 3a 66 ff 3d 24 c6 92 3e 98 7d ab 3d 2e 24 01 be
       0.1247067 0.28666794 0.083735645 -0.12611458
0001d0 e5 e9 d9 3c 32 0b 85 bd 5a dd ef 3c e6 43 41 3d
       0.026600787 -0.06496276 0.029280353 0.047183894
0001e0 26 70 d9 3d cf 6e ab 3d f1 c3 71 3b f1 85 8b bc
       0.10617094 0.083707444 0.0036890472 -0.017031642
0001f0 f2 00 95 3d e4 f5 df 3d e0 7e 2b 3e de e6 0a 3e
       0.07275571 0.10935572 0.16747618 0.13564631
000200 a6 cd 01 be 24 33 5a bd f2 c3 0d 3e 40 16 f5 bd
       -0.12676105 -0.053271428 0.13844278 -0.119671345
000210 a9 76 5d bd 53 ec e7 bd 84 f0 b6 3d e3 19 59 be
       -0.05406824 -0.11324372 0.089325935 -0.21201281
000220 ac e1 84 bd d3 a0 e8 3d 4f 33 1a be bf 8f ba 3d
       -0.06488356 0.113588 -0.15058635 0.09109449
000230 76 55 37 3d 2c 8d ab bd 87 72 5c 3e 8a f2 9e 3d
       0.044759236 -0.08376536 0.21528064 0.077611044
000240 60 35 59 bd 8d 0d 55 be b0 6a 4d bb 57 ea 2d 3e
       -0.053029418 -0.2080595 -0.0031344108 0.16983925
000250 d5 49 7d bd 05 58 83 3e a0 aa 2a 3e 2c 37 21 bd
       -0.06183799 0.2565309 0.16666651 -0.039359257
000260 56 0d bd 3d bc ab 8e bd 64 83 58 3d 12 f6 c3 3d
       0.09231059 -0.069663495 0.05285968 0.095684186
000270 93 9e 72 3e da 28 4a 3e 26 fa a8 3c e0 f4 dd 3b
       0.23693304 0.19742146 0.020627093 0.006773576
000280 1d b5 ad bd b7 32 1d 3e 6f f4 85 bd 02 d7 88 3d
       -0.0848181 0.15351377 -0.06540763 0.066816345
000290 f3 fa 7c bd 9b 7e 2c 3c 7a 3e 99 3d 01 b7 7b bc
       -0.06176276 0.010528232 0.074826196 -0.015363456
0002a0 bd b3 f7 bd a9 6f 80 3e f4 34 9a bd 32 61 11 3d
       -0.12094829 0.2508519 -0.07529631 0.035493083
0002b0 f8 a2 4a bd 8c 1b f7 3d e0 2d d9 bd 06 b8 cf 3c
       -0.049471825 0.12065801 -0.10604453 0.025356304
0002c0 38 a1 fb 3c 9f 78 3b be 9d 36 e6 bc ab 49 e7 bb
       0.030716524 -0.18307732 -0.028102214 -0.0070583425
0002d0 15 43 4b bd a5 06 81 3d 9d fa f9 3c 30 12 e4 bd
       -0.04962452 0.063000955 0.03051501 -0.111362815
0002e0 cc 78 09 3e da eb a0 bd d4 aa ca be 49 b4 59 3e
       0.13424987 -0.07857485 -0.39583457 0.2126018
0002f0 01 0d 9f 3d 9e 4e ca bd d2 26 15 be 0d 8b f5 3d
       0.07766152 -0.09878276 -0.1456559 0.119894125
000300 ca 27 5d be a2 12 a7 3d b1 a0 8f bd c8 56 d4 3d
       -0.2159721 0.08157851 -0.07013071 0.10368115
000310 54 1a 28 be fd f2 c1 3d 83 50 8e 3b d9 0c 21 be
       -0.16416293 0.094701745 0.004343094 -0.15727557
000320 fe 10 23 be 2f 08 90 3d 3f 42 11 be 1d a3 a8 3c
       -0.15924451 0.07032811 -0.14185427 0.020585591
000330 e6 b3 85 bd 13 c7 a8 bc d0 ed eb 3d 2a 63 4b 3e
       -0.065284535 -0.020602738 0.115199685 0.19862047
000340 79 f0 69 bc f3 55 20 be 92 4b 6a 3e ac f1 37 3d
       -0.014278525 -0.15657787 0.2288039 0.04490821
000350 55 04 87 bd 43 e2 31 bc 87 86 d9 bd d6 a5 dc bd
       -0.06592623 -0.010857168 -0.10621362 -0.10773818
000360 c7 b5 7e be 61 4c 1f 3e fa 97 d3 3d af 05 49 3e
       -0.2487403 0.1555648 0.103317216 0.19631074
000370 1c f8 c6 bd 52 a1 06 be 84 07 c8 bd fc 8f ee bd
       -0.09715292 -0.13147476 -0.097670585 -0.116485566
000380 01 94 00 bd 22 f5 79 bd fc c8 de 3d e0 83 06 bd
       -0.031391148 -0.061024792 0.108781785 -0.03284061
000390 5f 38 1b be a8 2a 4d bc 7f 89 94 3c 24 6e 41 be
       -0.15158223 -0.012522377 0.01813197 -0.18889672
0003a0 69 ec c5 bc 0e 34 86 3d aa 32 9b 3d e2 72 bd bd
       -0.02416058 0.065528974 0.07578023 -0.09250428
0003b0 f4 ae 75 3e ec 08 a3 3a 9a 76 fc 3c 58 07 13 3b
       0.2399252 0.0012438572 0.030818272 0.0022434797
0003c0 b5 b0 2d be 43 fa e3 3d 0e 11 38 bd ee 7e 59 3e
       -0.1696194 0.11131718 -0.04493814 0.21239826
0003d0 e7 b1 8b bd 8b b1 32 3c 19 8f 87 bc df a7 b4 bb
       -0.068210416 0.010906587 -0.016547726 -0.005513176
0003e0 85 b5 9f 3d 78 15 2d 3e 0d 54 ed bd 21 c8 89 3e
       0.07798294 0.16902721 -0.11588297 0.269105
0003f0 ed 35 3e bc ed 3e 46 3c 72 1e cf bc 69 67 0e be
       -0.011609537 0.012099964 -0.025283072 -0.13906635

layers.0.bias f4 [128]
000000 74 1a 3e be 5c 37 96 be 2e 1d 7f be 32 ab 9f be
       -0.18564779 -0.2933911 -0.24913475 -0.311853
000010 8d 77 04 be 37 42 4a be 1c a0 dd be 69 d5 86 be
       -0.1293623 -0.19751821 -0.43286216 -0.26334694
000020 ac 41 86 be ae 87 4d be 6f 77 35 be 7e 47 c3 be
       -0.2622198 -0.20071289 -0.17721342 -0.38140482
000030 9c 29 84 bd ab 7d e5 be 84 55 2a be 84 ac 30 be
       -0.06453249 -0.4482244 -0.16634184 -0.1725331
000040 bc aa 12 be 7d 0c a3 be d1 89 38 be 8c 41 e9 be
       -0.14322942 -0.31845465 -0.18021323 -0.4555782
000050 1a 37 29 be 12 78 a2 be 2f 5a 8a be 7c 05 c8 bd
       -0.16524926 -0.3173223 -0.2702193 -0.09766671
000060 41 bd 83 be 89 01 74 bd 0c e9 de bd fb 10 9f be
       -0.25730327 -0.059571777 -0.10884294 -0.31067643
000070 ea 09 0e 3c 86 99 bc be e3 e2 35 be 90 4e 43 be
       0.008669356 -0.3683588 -0.17762332 -0.19072938
000080 8c cf 8f be d9 e6 67 be 8c 34 7c bd e2 c9 94 be
       -0.28088033 -0.22646655 -0.06157355 -0.29060274
000090 4e 79 43 be 7b 5c 92 be 03 ba 41 bc 32 05 89 be
       -0.19089243 -0.28586182 -0.011824134 -0.26761776
0000a0 05 11 a1 be cd 3c a2 be 91 63 50 3a ef a3 82 be
       -0.31458297 -0.31687012 0.0007949407 -0.25515696
0000b0 89 02 1d be 24 6b b6 be 61 4a 15 bc c9 31 bc be
       -0.15332998 -0.35628617 -0.009111972 -0.36756733
0000c0 75 20 de bd b8 23 c5 bd 94 1f 3a be 66 93 4b be
       -0.108460344 -0.096259534 -0.18176109 -0.19880447
0000d0 15 73 2e be 12 90 85 be b1 16 5a be c7 ff a5 be
       -0.17036088 -0.2608648 -0.21297719 -0.32421705
0000e0 9a 65 4e bd da e8 4e bd 55 3a 99 bd 9a 25 aa bd
       -0.050389864 -0.050515033 -0.07481829 -0.08307953
0000f0 e0 cb a0 be a0 e1 a7 be 69 6f a1 be 50 d4 89 be
       -0.31405544 -0.32789326 -0.31530312 -0.26919794
000100 bc 16 2b be 34 d1 1f be 43 98 c1 be fa 47 47 be
       -0.16707891 -0.15607148 -0.3781148 -0.1946105
000110 66 a3 87 be 41 09 81 be 78 34 5e be fc 0f b7 be
       -0.2649185 -0.25202373 -0.21699703 -0.35754383
000120 b4 65 97 bd ef 11 63 be ad 5c 07 be 9b 8e c9 be
       -0.07392445 -0.2217481 -0.13218947 -0.39366612
000130 14 2e d1 be 95 58 43 be d9 4d 90 bd 3b ec 71 bd
       -0.40855467 -0.1907676 -0.07046098 -0.059063178
000140 d9 50 eb be d2 a7 0f be 00 2c 85 be d2 49 9a bc
       -0.4596012 -0.14028862 -0.26010132 -0.018834028
000150 51 00 4d be fe 07 65 bd c0 54 34 be 12 3a 0d be
       -0.20019652 -0.055915825 -0.17610455 -0.13791683
000160 d7 d5 98 be d9 c0 9a be e2 2a 0d be 06 d9 2a be
       -0.29850647 -0.30225256 -0.1378589 -0.1668435
000170 5b f8 42 be e5 78 b2 be c5 fa 82 be 63 87 84 be
       -0.19040053 -0.3485786 -0.25581947 -0.25884542
000180 8a e5 9f bd 86 55 89 be 84 a7 40 be 4b 1e 71 be
       -0.07807453 -0.26823062 -0.18813902 -0.23546712
000190 0c a7 14 be 1b 53 4c be b2 bf 03 bf e0 6c bc bd
       -0.14516848 -0.19953577 -0.5146438 -0.09200454
0001a0 a8 97 04 be 0e b1 15 be af 0d 88 be 8d 6c 62 be
       -0.12948477 -0.14618322 -0.2657294 -0.22111721
0001b0 61 dc 47 be a0 db 90 be 15 f7 b6 bd 73 cb 03 be
       -0.19517662 -0.2829256 -0.08933846 -0.12870578
0001c0 19 7e 73 be 65 56 e0 bd 84 d7 ad be e1 15 4e be
       -0.23778571 -0.109539784 -0.33953488 -0.20125534
0001d0 02 a2 6c be 9d 9f 30 be 06 2f c5 be 8a 29 66 be
       -0.23108676 -0.17248388 -0.3851244 -0.22476783
0001e0 6e 2f 6d bd 64 4e ef bd e3 2c 81 be 5a ae fd bc
       -0.05790656 -0.11684874 -0.25229558 -0.030966926
0001f0 65 2b 90 bd df 41 69 be 43 6e 33 be 60 36 89 be
       -0.07039527 -0.22779034 -0.1752253 -0.26799297

layers.3.weight f4 [64, 128]
000000 10 58 eb 3d 2c a6 d9 3d 87 90 43 3b 41 3d ed bc
       0.11491406 0.10627398 0.0029840784 -0.028959872
000010 0e 1f f1 3d a6 ad 71 3c 55 cf 83 bd d1 d1 a3 3d
       0.11773501 0.014750874 -0.0643603 0.07999004
000020 50 dc 0b be 7b ba 30 3e 26 84 00 be cb 18 c3 3c
       -0.13658261 0.17258637 -0.1255041 0.023815533
000030 41 b3 a0 bc bb 62 c5 3d ef b7 ae bd e9 0d aa 3d
       -0.019616725 0.09637972 -0.08531176 0.083034344
000040 50 b2 a6 be 41 8d 26 be bd 40 01 3d 75 0b bb bc
       -0.32557917 -0.16264822 0.03155588 -0.022832612
000050 19 36 61 bd ee 91 2d 3e a7 5a 9d be 02 c0 58 be
       -0.054983232 0.16950199 -0.30733225 -0.21166995
000060 a5 74 fa 3d 24 2d a4 3c 0d f3 d6 bd e4 2d 25 be
       0.122292794 0.020041056 -0.10495577 -0.16130787
000070 c2 3f a7 3c 55 d3 eb be 3d 20 ad bd f0 42 f0 bb
       0.020416144 -0.4605967 -0.084534146 -0.0073321983
000080 66 f4 70 3c e3 91 12 3c f7 be 9e bd ca 81 42 3d
       0.014706707 0.008945915 -0.077512674 0.047487058
000090 44 47 45 3e c3 6b 03 3d 7e df f8 bd 4c cc 08 3d
       0.19265467 0.03208519 -0.12152003 0.033397958
0000a0 40 d3 23 3e 61 53 00 bf 2b 32 05 bd 8d 5d 07 be
       0.15998554 -0.50127226 -0.032518547 -0.1321928
0000b0 d7 59 84 be 8d 1e d0 bc 70 6b b4 3b ef 08 26 bd
       -0.25849792 -0.025405193 0.0055059716 -0.040535863
0000c0 f1 2b cd 3d d7 56 21 be a2 d3 36 3d 98 91 a5 3d
       0.10018147 -0.15755783 0.044635423 0.080844104
0000d0 cb 9a c7 bc 11 77 80 be cd e1 b8 3d 52 b8 87 3d
       -0.024365803 -0.2509084 0.09027443 0.06626953
0000e0 83 7e a2 bd ad d3 2e be 26 77 82 3c 5c e4 ea bd
       -0.079342864 -0.17072935 0.015925955 -0.11469337
0000f0 2d 49 98 3d 61 2e 00 3e 4e c2 a9 bd 39 18 e4 3c
       0.07435832 0.12517692 -0.08289014 0.027843582
000100 b0 b6 75 bd e2 24 e8 bc a5 de 37 bd bb d7 34 bc
       -0.059988678 -0.0283379 -0.044890065 -0.011037762
000110 e4 99 9d be b3 b5 92 be f2 b0 8c bd a1 f6 48 bd
       -0.30781472 -0.2865425 -0.06869687 -0.04906333
000120 ec 1a ff 3b c7 f5 6c bd 44 45 35 be ee a6 ab be
       0.0077851918 -0.05785158 -0.17702204 -0.33525795
000130 94 a3 20 bc 4e 7c 25 bb 8e ae 09 be d1 d3 66 be
       -0.009804625 -0.0025251093 -0.13445494 -0.22541739
000140 3f 96 d4 3d f3 f9 1e 3d f6 1c ae 3d 67 b5 c9 bc
       0.1038022 0.03881259 0.085016176 -0.024622632
000150 54 84 9f bc d3 1c 10 be df 5c e0 bc 71 53 07 bc
       -0.019472279 -0.14073496 -0.027388034 -0.00825964
000160 cb 40 03 bd 5e bb 7d 3c 2a e7 f7 bd b3 3a 85 3e
       -0.032044213 0.015486566 -0.12104638 0.26021346
000170 3b bc df bd 00 a7 aa 3b b6 df 9a be 61 4f 7b 3d
       -0.10924574 0.005207896 -0.30248803 0.061355
000180 d4 60 05 be 0a 39 16 be bf 97 e6 bc 79 c1 27 be
       -0.13025218 -0.14670196 -0.02814853 -0.16382398
000190 e3 1c b0 bd c1 0b 96 3c 74 5d 81 3d 71 ff 0b 3b
       -0.0859926 0.018316152 0.06316653 0.0021361972
0001a0 66 a6 d1 3d e6 11 ab be f2 10 06 be 33 8e 49 be
       0.10236816 -0.33412093 -0.13092402 -0.19683151
0001b0 00 4a 93 3d f6 e1 21 3e a1 ac d4 3d 41 dd 51 3e
       0.07191849 0.15808854 0.10384489 0.20494558
0001c0 2b ee 2a be 89 ac 48 bd 4e de 58 3c ef 2c d2 3c
       -0.16692416 -0.048992667 0.013236595 0.025656192
0001d0 e0 d0 e8 3d bd 15 d2 3c ec 90 11 3e 98 99 bc be
       0.11367965 0.025645131 0.1421544 -0.36835933
0001e0 ac e2 66 be 3f ea df bd 23 a7 01 3d 2e e3 4a bd
       -0.22547406 -0.10933351 0.031653535 -0.04953306
0001f0 fe e2 5e be 0a fe 9c 3c d7 02 96 bc 6f d2 6d be
       -0.21766278 0.019164104 -0.018311901 -0.23224805
000200 d0 38 91 3d a6 61 f3 3d 49 8d 7e 3d 2b eb 53 3e
       0.07090914 0.11883859 0.06214646 0.20695178
000210 ba 29 c8 3d ac 92 0d be d5 ae 86 bd 72 ac 80 be
       0.09773584 -0.13825482 -0.06576315 -0.25131565
000220 ae d5 de bb c9 e4 af bc a0 76 d9 3c 29 04 a4 be
       -0.006800375 -0.021471398 0.026545823 -0.32034424
000230 70 62 62 3c 37 af e0 bc 06 c1 3f be 96 5a 06 be
       0.013817415 -0.027427299 -0.18725976 -0.13120493
000240 0f 86 2b bc 59 fc 64 bd 82 41 28 be 31 3f 89 be
       -0.010468974 -0.05590472 -0.16431239 -0.26806024
000250 12 c3 a2 3d 6d ce 23 bd 45 c6 35 3e 36 37 40 3e
       0.07947363 -0.039991785 0.17751415 0.18771061
000260 c2 8a 94 be 25 3f 9c be 8a 65 59 3c 1b 6c cc 3c
       -0.29012114 -0.30516925 0.013268838 0.024953892
000270 86 d5 7a 3c e9 b3 fa bc 65 1f 4e bd 8d 43 00 bb
       0.015309697 -0.030603366 -0.05032291 -0.0019571513
000280 31 96 d4 bc 68 86 e5 3d 4b e5 19 bd d8 ba a9 bd
       -0.025950523 0.112072766 -0.037572186 -0.08287591
000290 78 5b fc bd 42 1a 81 3d 7f 34 37 be 73 17 5c 3d
       -0.12322134 0.063038364 -0.1789112 0.0537333
0002a0 fd c6 f0 be fb 8e 75 3d 02 50 60 bd ce d8 ad bd
       -0.47026816 0.05995081 -0.0547638 -0.08488618
0002b0 f0 f7 bb bd ab 67 e2 bd 8b 1f 27 be 87 56 fd bb
       -0.0917815 -0.11054929 -0.16320626 -0.007731262
0002c0 fa cb 86 3d 4c 49 95 3d fc e7 04 3e b6 0b ff bc
       0.06581874 0.07289371 0.1297912 -0.031133514
0002d0 5f a0 5a 3d de 6c 56 be d9 3d 2f be 64 00 cd bc
       0.053375598 -0.20939967 -0.17113437 -0.0250246
0002e0 8d 66 1b 3e 11 33 6a 3e f9 3c 82 3c ea d1 b3 bd
       0.15175839 0.22871043 0.015898215 -0.08780272
0002f0 10 07 c3 be 65 d8 0c 3d 60 c8 ad bd 2c f5 cc bd
       -0.38091326 0.034386057 -0.08485484 -0.100077
000300 83 5a 17 3d 55 7b b3 3b a8 68 50 3d 9c 28 e7 3d
       0.036951553 0.005477349 0.050881058 0.112870425
000310 b2 80 97 3c 25 fe 26 3d 8c 15 81 bc b8 29 5d be
       0.018493984 0.040769715 -0.015757345 -0.21597946
000320 cb 6d 27 3d 17 29 a1 bc 85 e8 e3 3d 88 ad ee 3c
       0.04087619 -0.019672913 0.11128334 0.02913548
000330 f8 41 04 3e 4e cf fc bd 2e 7d 2f 3d 22 e9 0d bd
       0.1291579 -0.12344228 0.04284399 -0.03464616
000340 7e d6 b1 bd cc e1 ad be 17 22 83 bd 53 58 5d bd
       -0.08683489 -0.33961332 -0.064029865 -0.05403931
000350 fd 52 3d bb f6 81 65 3d bb 14 22 be 3e f9 0d 3b
       -0.0028888576 0.056032144 -0.1582822 0.0021663452
000360 be 3c 50 be 17 91 35 bb ec fa ef bd 67 68 55 be
       -0.20335671 -0.0027704888 -0.117177814 -0.20840608
000370 4b bf c8 bd a5 f8 4f be ce 12 90 bc 84 ad 12 be
       -0.09802111 -0.20309694 -0.017587092 -0.14324003
000380 77 fb 80 be 8f 2b 1b bd f3 1c 2b 3e 31 44 06 3e
       -0.25191852 -0.037883338 0.16710262 0.1311195
000390 c8 12 43 3e d8 24 03 bc 0b 82 59 3c 79 2e ac bb
       0.19050133 -0.00800439 0.013275634 -0.0052545634
0003a0 4f 99 cb be 70 7d 80 3e 3c 7f d8 3d ed 1c cb bc
       -0.39765403 0.250957 0.10571143 -0.024794066
0003b0 3b 06 90 be cc 4f b5 bd e1 82 a6 3d 1a 89 a6 bd
       -0.28129753 -0.08853111 0.08130432 -0.08131619
0003c0 6c 12 d6 bd 39 10 94 3d ac 1e 86 3d be ae 6f 3d
       -0.104527324 0.07229657 0.06548819 0.058516257
0003d0 ab ac 7b be 81 39 13 be 9e 64 81 be 17 38 16 3e
       -0.24577586 -0.14377405 -0.25272077 0.14669834
0003e0 ea 21 1d 3e 32 17 a6 bd aa e2 8d 3d 95 41 44 bd
       0.15344968 -0.08109893 0.06927998 -0.047914106
0003f0 ad 1f 55 3e b3 45 89 3c 23 45 6b 3d c3 38 60 be
       0.20812865 0.016756868 0.05743898 -0.21896653

layers.3.bias f4 [64]
000000 8e 45 f7 3d 82 9c db bd 7f 49 8e 3e 34 f1 5e 3e
       0.120738134 -0.10723211 0.27790448 0.21771699
000010 f9 9e 6f 3d f6 49 0c 3e 0a 34 ba 3c b2 0e b1 3d
       0.058501218 0.13700089 0.022729892 0.08645381
000020 05 f0 5a bd 8c be 06 3e ff 27 a6 3d a4 2c 50 3d
       -0.053451557 0.13158625 0.081130974 0.050823823
000030 e0 49 a0 3b c0 db 6a 3e e9 43 72 3d eb f0 af bd
       0.004891619 0.2293539 0.059146795 -0.08590873
000040 49 e8 3e 3c 97 9f 92 3b a0 b6 ac bd 69 e3 c7 3d
       0.011652061 0.004474591 -0.084332705 0.09760172
000050 91 99 6b 3d af 7c c8 bd ae 89 1e bd 25 ed c7 3b
       0.0575195 -0.097894065 -0.03870552 0.006101268
000060 51 fe 9c 3e 60 1f 8a bb 8f b4 0b 3e a1 f1 16 3a
       0.30662778 -0.004215166 0.13643096 0.00057580514
000070 4f 28 a5 bd f4 4e 2f be 59 b3 80 3d 03 5a 81 bc
       -0.08064329 -0.17119962 0.06284208 -0.015789991
000080 b3 95 dc bd 70 b0 60 3d fa 1a 88 3d cb 4c 4c be
       -0.1077074 0.054855764 0.0664577 -0.19951169
000090 08 62 2a 3d 98 63 c7 bd 56 1e fe 3b e3 d7 96 3d
       0.041597396 -0.09735793 0.007755081 0.07365396
0000a0 e5 28 f3 3d 09 9f 5a 3e 52 e2 1b bd 32 a0 eb 3c
       0.118730344 0.2134973 -0.038057633 0.02876291
0000b0 ea 03 c3 3d 3d 29 99 bb f6 8b 10 3d ba 36 96 3d
       0.09522231 -0.0046741054 0.035289727 0.07334657
0000c0 32 ac 43 3d 6a db e0 3d a5 80 3d be fa 64 b4 bd
       0.04777164 0.1097935 -0.18506105 -0.08808322
0000d0 23 53 9d be 50 b6 ed bc e6 fa b0 bc b0 4d e8 3d
       -0.3072749 -0.029017597 -0.021604013 0.11342943
0000e0 d8 43 02 bd 7c e7 80 3c 5b 55 94 bd b1 a7 5a 3e
       -0.031802982 0.01573538 -0.07242843 0.21353032
0000f0 f6 35 0c 3d 82 82 70 3b 2a f5 16 3c 30 3c 6c be
       0.03423115 0.0036698882 0.009213725 -0.23069835

layers.6.weight f4 [32, 64]
000000 ac dd 82 bd d5 4d a1 3d af 66 05 3e 1c df 20 be
       -0.06389937 0.078761734 0.13027452 -0.1571011
000010 24 92 fd be 41 23 ab bc 67 68 79 3c 85 cb 04 bc
       -0.4952556 -0.020890834 0.015222645 -0.008105163
000020 c3 ff a2 bd 2f c9 88 bc 57 75 c6 3d c9 ae 5c bd
       -0.07958939 -0.016697494 0.096903495 -0.053877626
000030 e7 e9 02 be 40 7a 44 3e f8 4c 91 3e 70 a6 88 3c
       -0.12784539 0.1918726 0.28379035 0.016680926
000040 4d c1 bc 3d dd 88 5e be ec fe d3 be 72 b8 bf 3d
       0.09216557 -0.21731897 -0.41405427 0.09361352
000050 9f 7d 2a be eb 97 39 bd 07 42 af bd b7 07 6d bd
       -0.16649483 -0.045310896 -0.085575156 -0.057868686
000060 c2 3f be 3d 1a 94 7d be 29 03 cb bc 1f 9b c6 3d
       0.092895046 -0.24763528 -0.02478178 0.09697556
000070 b6 fa 25 be c4 d1 5e be 32 c1 ae be 1f f9 38 be
       -0.1620892 -0.21759707 -0.3413177 -0.18063782
000080 22 9b 95 bd 9c 8b 9d 3d 11 04 52 3d 32 5e 0c 3d
       -0.0730498 0.07692644 0.05127341 0.03426952
000090 18 f2 79 3e 44 57 ab be 09 1d 7d 3d bb dd 75 be
       0.24408758 -0.33465016 0.06179527 -0.24010365
0000a0 39 fd 35 bd d0 82 18 bd 03 5e 11 bd d6 f1 90 3d
       -0.044430945 -0.037234128 -0.035490047 0.070773765
0000b0 17 52 61 bd 39 f8 b4 bd e4 d6 6f 3d af 6a e1 be
       -0.055009928 -0.08836407 0.058554545 -0.44026706
0000c0 ef 59 00 3e b5 30 e8 3d 24 20 92 3d 88 67 c9 3d
       0.12534307 0.11337415 0.071350366 0.098342
0000d0 7f 21 68 bd 07 8a 2f 3e 6e 24 d1 3d c7 93 22 3d
       -0.05667257 0.17142497 0.102120265 0.039691713
0000e0 a8 95 8c bd 44 d3 b0 be be 78 c9 3d e7 16 05 3e
       -0.06864482 -0.34536183 0.09837483 0.12997018
0000f0 97 c3 45 be 54 27 a0 3d cd 88 35 be 2e 43 2c bd
       -0.19312893 0.07820001 -0.17727967 -0.042056255
000100 e7 6d b1 be 0b bd 90 bd 2b aa e2 3c 73 3c 64 bc
       -0.3465416 -0.07067307 0.027669033 -0.013930428
000110 45 f3 07 3e 21 ea 1d be 67 be 84 3d b1 1d a7 be
       0.13276394 -0.15421344 0.06481629 -0.3263984
000120 7c a6 6b bd 36 4d 79 bd 31 28 01 be 54 38 9d be
       -0.05753182 -0.06086465 -0.12612988 -0.30707037
000130 1c 10 15 3c 70 46 ca be 1d 40 9c be 10 f3 e6 3c
       0.009098079 -0.39506865 -0.30517665 0.028192073
000140 2a fc 1f bf f6 d1 21 bd 20 ba 88 bd 5a 62 e8 be
       -0.62494147 -0.039506875 -0.066761255 -0.45387536
000150 03 a7 2b 3d 5c 8f 21 bd cf 22 dd 3c be 90 9b 3c
       0.04190732 -0.03944336 0.026994137 0.018989917
000160 37 4f 82 3e e0 95 0d 3e 0a 17 c5 be 14 ef b9 bd
       0.2545106 0.13826704 -0.3849414 -0.09078804
000170 eb ac 34 bd 5d 45 60 be 5b b4 51 3d 10 b1 fb 3d
       -0.04411022 -0.2190146 0.05119739 0.12289631
000180 8b 63 58 3e 40 e5 3a bd 2c 7b 4d 3d 12 b4 44 be
       0.21131723 -0.045628786 0.050166294 -0.19209316
000190 25 fd ce bd 56 45 70 3d ff 6f 5f bd 4c 4e 26 3e
       -0.10106877 0.058659874 -0.054550167 0.16240805
0001a0 37 f2 3d be 04 c7 3e 3e c5 f3 8d be 02 13 d9 bd
       -0.18549429 0.18630606 -0.27725044 -0.105993286
0001b0 1c 4c cc be 32 54 3f 3e 16 fd 10 be 82 95 1b 3e
       -0.39901817 0.18684462 -0.14159045 0.15193751
0001c0 d6 92 12 bf 78 73 8e be 3b 7e 71 bd 5d 9f 80 bd
       -0.57255304 -0.2782247 -0.058958273 -0.06280396
0001d0 7a ba 01 be 00 5d 95 3c c2 0e 0b 3c 06 1c ad 3d
       -0.12668791 0.018232822 0.008487405 0.08452611
0001e0 26 ad 02 bd 0f 53 d0 ba d6 37 e2 bd 2a de d1 bc
       -0.03190341 -0.0015893894 -0.11045806 -0.025618631
0001f0 46 97 95 bd e3 3b 5d bd 20 ac 1b 3e 7d 96 f7 3d
       -0.07304244 -0.05401219 0.15202379 0.1208925
000200 01 9e a1 be 75 64 26 be 95 76 cd 3c 84 50 af bd
       -0.3156586 -0.16249259 0.025080958 -0.08560279
000210 dc dd 21 3e 94 08 80 bd 3f a9 d7 be 8e fe c6 be
       0.15807289 -0.06251636 -0.42121312 -0.38866085
000220 10 ec f9 3d 46 46 31 3d 49 a5 ca bd 44 98 84 be
       0.122032285 0.04327991 -0.09894807 -0.2589742
000230 8a 67 62 3e ca c5 8b be de f7 d6 bd 41 ca b8 bd
       0.2210981 -0.2729934 -0.10496496 -0.09022952
000240 f0 1d e4 be 55 22 16 bd aa 17 1e bd 8b ed 87 be
       -0.4455409 -0.036653835 -0.038596787 -0.26548418
000250 ac 4a 10 3e 93 4d e1 bb 3d 0e a2 3d 66 78 35 3e
       0.14090985 -0.0068757026 0.07912872 0.1772171
000260 cd 4d c1 3d 6e 60 a6 3d 4b 65 2f be 8f 26 a0 3c
       0.094386674 0.08123861 -0.17128484 0.019549636
000270 90 39 89 3d 0d b1 df 3d ee 06 a0 3d b9 09 ab 3d
       0.06700432 0.10922442 0.07813822 0.08351464
000280 f0 ba e8 3d 8a 05 32 3d ff e3 39 3e 93 27 02 bd
       0.113637805 0.043462314 0.1815338 -0.031776022
000290 0f 32 48 be a8 8a cc 3d 1a b9 64 bc ff 93 c5 3d
       -0.19550346 0.09987384 -0.013960147 0.09647369
0002a0 41 70 9d bd 90 25 13 3e d7 ad 90 be d7 9b 14 be
       -0.07687426 0.14369798 -0.2825763 -0.14512573
0002b0 ef d1 a1 be f0 9d 4e 3d 60 b0 9f bd 0a 0a a8 3d
       -0.3160548 0.05044359 -0.07797313 0.0820504
0002c0 b2 62 d7 be 38 1a 04 be be 19 37 be 4a 33 e4 bd
       -0.42067486 -0.12900627 -0.17880914 -0.11142595
0002d0 c3 b7 20 be 7c 49 7c 3d b4 a7 13 3e e2 99 13 3d
       -0.156951 0.061593518 0.14419442 0.036035426
0002e0 d7 5f 3c bd 42 0e 6e 3d 0d 1a 1a 3e 4c 78 1d 3e
       -0.045989837 0.058119066 0.15049 0.15377921
0002f0 97 be 88 3c fb 18 d7 3c 5c d4 00 3d 11 f2 56 bd
       0.016692443 0.026257029 0.03145252 -0.052476946
000300 16 5b 86 bc 86 f1 77 bd 4d 12 d8 bc 2e eb 0f 3d
       -0.016400855 -0.06053307 -0.026375914 0.035136394
000310 6d 33 17 3e fc 3a c0 be 09 a1 c3 be 70 3d 80 be
       0.14765711 -0.37545002 -0.38208798 -0.25046873
000320 d4 b3 0f be f6 a6 b2 3d 5a 52 42 be c3 45 e1 bd
       -0.14033443 0.087232515 -0.18976727 -0.10999634
000330 3e 84 35 3e 2f ea ae be 4f 62 3b be 4a 10 9f bc
       0.17726228 -0.34163043 -0.1829922 -0.019416947
000340 be c4 18 bf 63 88 38 3e 39 90 16 be 8e e2 b4 be
       -0.59675205 0.18020777 -0.14703454 -0.35329098
000350 bc 7c 95 3d e4 db 7f be 28 60 96 3d 7a c4 8d 3d
       0.07299182 -0.24986225 0.07342559 0.069222406
000360 1b d7 5f 3d 80 0b a7 bd 0e 88 fa be 1e 12 82 bd
       0.0546485 -0.0815649 -0.48931926 -0.06351112
000370 3b 10 cd 3c c7 f5 b4 3d d7 8e 06 3d 20 6b 4c 3d
       0.025032153 0.08835941 0.032851066 0.04990685
000380 50 70 cc 3d f1 0f c0 3d 7b 27 62 3c af 90 04 bb
       0.099823594 0.093780406 0.013803358 -0.002022784
000390 55 a4 55 be ae 0a 2d 3e 70 29 87 bc ae 06 17 3e
       -0.20863469 0.16898605 -0.016499251 0.14748642
0003a0 00 ad 1e bd c3 7f 0f 3d ec ee c7 be c3 ae ec 3b
       -0.038739204 0.035033952 -0.3904947 0.0072229817
0003b0 d1 2d 97 be eb ea c8 3d 13 4b 52 be 0e 20 13 3e
       -0.29527143 0.09810432 -0.20536451 0.14367697
0003c0 6f 9d aa be 98 d6 b1 be dd 2e 87 3d 56 d9 3b 3d
       -0.33323237 -0.34734035 0.06600735 0.045861565
0003d0 1d 70 e1 be 00 51 50 3e f1 c3 01 bc 4d 8f 62 3d
       -0.44030848 0.20343399 -0.007920251 0.055312444
0003e0 4b 5b 63 be 9a 02 8a be 19 66 8d bd b1 76 f8 3d
       -0.22202794 -0.2695511 -0.06904239 0.121320136
0003f0 a3 ab 8c 3d 9a d8 2b bd e2 bc 32 3e cf cb ed 3c
       0.068686746 -0.041954614 0.17454866 0.029027848

layers.6.bias f4 [32]
000000 90 a8 25 3e 5a 32 63 3e 59 fe cf 3d 30 9f 9a 3e
       0.16177583 0.22187176 0.10155935 0.30199575
000010 36 dd a2 3e ab fb cd 3e 67 e6 83 3e 83 5d 59 3e
       0.31809396 0.4023107 0.2576172 0.21227078
000020 28 0c 81 be f9 66 18 be 31 c0 db be 85 80 1b 3e
       -0.25204587 -0.14883031 -0.42920068 0.15185745
000030 41 19 59 3e 15 5e 9b 3e 36 27 3b 3e 4d 97 9e 3e
       0.2120104 0.30345216 0.18276677 0.30974808
000040 2b 45 fa bc af a7 f2 3d 90 19 69 3d 2f fe a0 3e
       -0.03055056 0.11848389 0.056909144 0.31443927
000050 f8 7b 6c be e3 4b 85 3e ca b8 3c 3e 26 c2 a1 3e
       -0.23094165 0.2603446 0.18429866 0.31593436
000060 2e a8 de 3d 14 ea 80 3e fd ff 8b 3e d5 98 25 3e
       0.108719215 0.25178587 0.2734374 0.16171582
000070 79 2f 43 3e 10 98 66 3e 4f e5 bb 3e 77 4e 05 3e
       0.19061078 0.22518945 0.36698386 0.13018213

layers.8.weight f4 [1, 32]
000000 9a 2a 52 3e f1 f0 85 be aa 51 94 be 65 2d c0 be
       0.20524064 -0.26160386 -0.28968555 -0.37534633
000010 61 42 aa 3e d9 bd dd be 15 d3 18 be 84 1e b8 be
       0.33253768 -0.43308905 -0.14924271 -0.35960782
000020 92 a1 1b bf d8 bc cb be 89 56 14 3f a9 95 16 be
       -0.6079341 -0.39792514 0.5794454 -0.14705528
000030 6d f2 4d be 2b 6d 93 be 88 57 a7 3e ed 1c 7f 3e
       -0.2011201 -0.28794226 0.3268397 0.24913378
000040 ff ff c8 be 2e f9 77 be b6 78 e9 3d 7e f6 a6 3e
       -0.3925781 -0.24216148 0.11399977 0.32609934
000050 a5 4b ca 3e 63 79 ca be 79 cc 53 3e 41 c2 be 3e
       0.39510837 -0.39545736 0.20683469 0.3725758
000060 dd 4e cd be 08 a3 5f 3e 60 5b 88 3e 51 03 78 be
       -0.4009923 0.21839535 0.26632214 -0.24220015
000070 3a 37 52 3e ff ff bd 3e 70 59 8f 3e 27 29 2f be
       0.2052888 0.37109372 0.27997923 -0.17105542
